run_script/meta_net_3_params_lastBaseEpoch.pth (torch, 4135 bytes, 1 tensors)

0.weight f4 [1, 768, 1]
-0.019591972 0.006290664 -0.015535195 0.018257024 0.027702179 0.014427838 0.008159474 -0.0035282695
-0.020645147 0.014520982 -0.0033217294 -0.010428672 0.0318394 0.011383457 -0.027236357 0.017799117
-0.0348075 -0.016932642 -0.0393009 -0.005332071 -0.048950758 -0.05025898 0.020307519 -0.023201143
-0.005595379 -0.018675368 -0.019016033 -0.03699864 0.02314583 0.039746832 0.026221236 -0.014518882
0.019258158 -0.0044362783 0.04037591 0.031242609 -0.020766707 -0.0017633878 -0.0071849623 0.02186667
-0.026108045 -0.032494508 -0.026363052 0.01924314 -0.014079548 -0.026431555 0.01640372 0.004808339
0.007407351 0.016830904 -0.01525177 0.002831093 -0.020744998 0.02003964 -0.028467694 -0.045719463
0.024734827 -0.017091932 0.013175399 0.0014133765 0.0119310925 -0.017702425 0.013066448 -0.0073535675
-0.0065941727 -0.050478376 0.030829947 -0.018368075 0.014670217 -0.03666524 0.025092168 -0.025946226
0.023430511 0.017759124 -0.025007531 -0.0043751495 0.038043514 0.025851114 0.0022532828 -0.008559517
-0.03881267 0.020676412 -0.034975894 -0.002365964 -0.016984025 0.009540643 -0.01284138 0.02349366
-0.02914103 -0.019167058 -0.025175452 0.03504687 -0.038502403 -0.024159487 0.016643396 -0.024972413
0.021487279 0.007846017 -7.233816e-05 -0.011097904 -0.0070719286 0.00075364683 -0.05179141 0.012146718
-0.003242562 0.024714809 -0.02670515 0.01407156 0.02870058 0.013351486 0.010021478 -0.017338492
-0.0032543577 -0.015168655 -0.012259883 -0.016225453 -0.011162447 0.010881124 0.022949696 -0.012358428
0.011881244 0.034783605 -0.0053948252 -0.037158925 0.024983836 0.0069616167 -0.027363459 0.013037607
0.023517407 -0.031505805 0.009662299 -0.024733352 -0.006282465 0.050580207 -0.022886893 0.022351047
0.024421275 -0.014114775 0.01823593 0.016906071 0.0063092234 0.038742725 -0.0100396685 -0.0420135
-0.0064083165 0.037100833 0.0003452111 -0.026210325 0.0070809773 0.038708664 0.015013082 -0.025305199
-0.030460931 -0.010397375 -0.0100527145 -0.031147262 0.030314296 -0.019592911 -0.004019162 0.017323187
0.023785038 0.010910895 -0.0017244015 0.015583639 -0.013448444 0.012035851 0.008096944 0.043490794
0.0043554395 0.025820008 0.026899718 -0.0031332693 -0.008862487 -0.023534384 -0.016268834 -0.0020549952
0.017754909 -0.009456029 0.033135705 -0.033067748 -0.04650657 0.018725269 0.0051885657 -0.013103299
0.015317445 -0.015554521 0.036594953 0.017705237 0.024289528 -0.013722647 -0.01864693 0.013986762
-0.040130142 0.044120807 -0.02299456 0.022956444 -0.026849689 -0.009570435 0.034531955 0.01669218
0.021787303 0.011641706 0.01538195 -0.02836074 0.030397926 0.019835893 -0.029917583 0.018070223
0.016693648 -0.016238932 0.030542044 -0.04003968 -0.010115139 -0.008394704 -0.029117018 0.0037384597
0.0034974834 -0.04232943 -0.03056612 -0.03687059 0.004607889 0.0013453233 -0.040424097 -0.0051547005
0.020101912 -0.013614291 0.014693952 -0.012452988 -0.034612782 -0.0023388413 0.0017225189 0.02328617
-0.02542771 -0.006098996 0.043093447 0.01042842 0.0030058422 -0.024531702 -0.016206713 -0.014679521
-0.0118503515 0.019971708 0.016347734 0.036006823 -0.005463614 -0.0010184783 -0.00581365 -0.040592752
-0.0102898795 0.016381556 -0.014244573 0.012502024 -0.034680586 0.012145972 0.0262384 -0.015904075
00000000: 587f a0bc ea21 ce3b 5587 7ebc c18f 953c
00000010: aeef e23c bd62 6c3c 50af 053c 8a3a 67bb
00000020: 0320 a9bc 6ae9 6d3c 5fb1 59bb 05dd 2abc
00000030: 086a 023d ae81 3a3c c81e dfbc 74cf 913c
00000040: 4f92 0ebd 53b6 8abc fbf9 20bd a7b8 aebb
00000050: 9780 48bd 5cdc 4dbd f45b a63c 5310 bebc
00000060: 7159 b7bb 16fd 98bc 83c7 9bbc e38b 17bd
00000070: 539c bd3c 93cd 223d ebcd d63c 9be0 6dbc
00000080: 49c3 9d3c 335e 91bb 3661 253d 80f0 ff3c
00000090: f11e aabc 7a21 e7ba d56f ebbb bb21 b33c
000000a0: 8ae0 d5bc f618 05bd 54f7 d7bc caa3 9d3c
000000b0: e8ad 66bc fd86 d8bc 1861 863c 458f 9d3b
000000c0: 5db9 f23b f7e0 893c 8fe2 79bc dc89 393b
000000d0: 6af1 a9bc 2c2a a43c 1535 e9bc 5544 3bbd
000000e0: b1a0 ca3c 6104 8cbc a1dd 573c 0c41 b93a
000000f0: a17a 433c ad04 91bc a814 563c 32f6 f0bb
00000100: ee13 d8bb 6ac2 4ebd 168f fc3c a578 96bc
00000110: 5a5b 703c 4a2e 16bd 178e cd3c 2e8d d4bc
00000120: 58f1 bf3c 957b 913c 98dc ccbc 6a5d 8fbb
00000130: 84d3 1b3d b7c5 d33c d0ab 133b 373d 0cbc
00000140: 09fa 1ebd 9461 a93c e242 0fbd 4a0e 1bbb
00000150: 1522 8bbc 5b50 1c3c a764 52bc c775 c03c
00000160: 2bb9 eebc 3c04 9dbc c03c cebc 4f8d 0f3d
00000170: b2b4 1dbd 1eea c5bc bb57 883c f292 ccbc
00000180: 1706 b03c 958c 003c 41b4 97b8 fcd3 35bc
00000190: a3bb e7bb 6290 453a 3b23 54bd 0703 473c
000001a0: 2a81 54bb b676 ca3c c2c4 dabc 678c 663c
000001b0: 7b1d eb3c 31c0 5a3c 2031 243c 7409 8ebc
000001c0: 1047 55bb f385 78bc addd 48bc 3eeb 84bc
000001d0: b2e2 36bc be46 323c 0001 bc3c 017b 4abc
000001e0: 8da9 423c 4179 0e3d 13c7 b0bb f533 18bd
000001f0: e7aa cc3c 461e e43b 5529 e0bc b09b 553c
00000200: 94a7 c03c 3b0c 01bd 9f4e 1e3c 999d cabc
00000210: 23dd cdbb 312d 4f3d 4b7d bbbc 8b19 b73c
00000220: 200f c83c a841 67bc 8463 953c 9a7e 8a3c
00000230: 9abd ce3b b1b0 1e3d 6c7d 24bc 5916 2cbd
00000240: dbfc d1bb 0bf7 173d 73fd b439 09b7 d6bc
00000250: 8b07 e83b fa8c 1e3d 6ef9 753c d94c cfbc
00000260: 3489 f9bc c059 2abc 24b4 24bc 8b28 ffbc
00000270: b055 f83c 5081 a0bc 2db3 83bb 5be9 8d3c
00000280: d7d8 c23c 9cc3 323c 5005 e2ba 8552 7f3c
00000290: dd56 5cbc 0532 453c 0ba9 043c 6723 323d
000002a0: 13b8 8e3b 7b84 d33c cc5c dc3c 8957 4dbb
000002b0: f733 11bc 2ecb c0bc 3846 85bc 19ad 06bb
000002c0: be72 913c 76ed 1abc 4eb9 073d 0c72 07bd
000002d0: ac7d 3ebd bc65 993c d804 aa3b 38af 56bc
000002e0: 05f6 7a3c 64d8 7ebc 97e4 153d 930a 913c
000002f0: d5fa c63c f4d4 60bc 72c1 98bc bb28 653c
00000300: 815f 24bd 05b8 343d 165f bcbc 270f bc3c
00000310: e1f3 dbbc 50cd 1cbc 6171 0d3d 0abe 883c
00000320: 497b b23c dbbc 3e3c 9304 7c3c c854 e8bc
00000330: 1205 f93c e27e a23c b815 f5bc 0108 943c
00000340: 1ec1 883c 8207 85bc 4f33 fa3c a600 24bd
00000350: f8b9 25bc f189 09bc d086 eebc f200 753b
00000360: 0936 653b a061 2dbd cd65 fabc 9e05 17bd
00000370: c6fd 963b 8f55 b03a bd93 25bd c3e8 a8bb
00000380: c4ac a43c 7a0e 5fbc e7be 703c 9e07 4cbc
00000390: 22c6 0dbd 3f47 19bb 25c6 e13a a3c2 be3c
000003a0: c64d d0bc 16da c7bb c182 303d f7db 2a3c
000003b0: aafd 443b b5f6 c8bc f1c3 84bc 6082 70bc
000003c0: fa27 42bc b59b a33c afeb 853c e47b 133d
000003d0: 1e08 b3bb 767e 85ba 6e80 bebb 9644 26bd
000003e0: e296 28bc 9d32 863c 1262 69bc 4ad5 4c3c
000003f0: 3b0d 0ebd e6ff 463c eaf1 d63c 4349 82bc
