run_script/meta_net_2_params_lastBaseEpoch.pth (torch, 2911 bytes, 4 tensors)

0.weight f4 [3, 3, 3, 3]
0.077361435 -0.01730754 0.1839276 0.02554176 -0.1220812 -0.12100298 -0.07818972 0.04426768
-0.0719243 -0.10278445 0.14326431 -0.033906806 0.08213095 0.18656366 -0.04471437 0.051354617
-0.15854953 0.09561281 0.009700291 -0.12502779 -0.07498408 0.07005169 0.2113974 0.20785007
0.0433708 0.0767064 -0.16001412 -0.1498127 -0.12648644 0.15137772 0.09398545 0.17048037
0.16302869 0.07657818 0.083758816 -0.113400884 0.1926771 -0.033503447 -0.0052794795 0.057975862
-0.14886984 -0.16280235 0.0402512 -0.012523608 0.14093499 -0.099991664 0.03179759 -0.10252372
-0.025511047 0.17085846 0.11588808 0.008770981 -0.09823245 -0.06442101 -0.19133735 0.027981658
0.065840684 -0.06410141 -0.03065147 -0.01115506 -0.13337404 0.03453878 0.034170415 0.08194504
0.06902977 -0.08058441 -0.016948953 -0.07952336 0.085524835 -0.054055694 0.11415273 -0.16707568
0.15957016 -0.16401501 -0.12714598 -0.11719596 -0.052337646 0.13414863 -0.02269129 0.158542
-0.11325644
00000000: ac6f 9e3d 8bc8 8dbc 8457 3c3e f43c d13c
00000010: b505 fabd 69d0 f7bd ef21 a0bd 0752 353d
00000020: 0c4d 93bd a780 d2bd e1b3 123e dde1 0abd
00000030: 4634 a83d 8b0a 3f3e 6a26 37bd 3859 523d
00000040: cf5a 22be a6d0 c33d f8ed 1e3c 4907 00be
00000050: 4191 99bd 4377 8f3d 8f78 583e a6d6 543e
00000060: 94a5 313d 3f18 9d3d beda 23be 8068 19be
00000070: a985 01be c302 1b3e 727b c03d 6892 2e3e
00000080: fef0 263e 05d5 9c3d be89 ab3d b93e e8bd
00000090: 254d 453e e93a 09bd 7cff acbb 1978 6d3d
000000a0: 5671 18be a9b5 26be 71de 243d d22f 4dbc
000000b0: 4351 103e 6ec8 ccbd 313e 023d f5f7 d1bd
000000c0: 8bfc d0bc 85f5 2e3e bb56 ed3d 29b4 0f3c
000000d0: 182e c9bd 2aef 83bd f0ed 43be ca39 e53c
000000e0: 7bd7 863d 9a47 83bd cb18 fbbc b6c3 36bc
000000f0: 3493 08be 8978 0d3d 47f6 0b3d cdd2 a73d
00000100: 7b5f 8d3d 7009 a5bd 88d8 8abc 25dd a2bd
00000110: a527 af3d 8169 5dbd e8c8 e93d e315 2bbe
00000120: 5c66 233e 8df3 27be 8e32 02be 6f04 f0bd
00000130: 0060 56bd 425e 093e 16e3 b9bc d658 223e
00000140: fef2 e7bd

0.bias f4 [3]
-0.2727099 -0.15394126 -0.12857158
00000000: a2a0 8bbe c7a2 1dbe 45a8 03be

2.weight f4 [3, 3, 5, 5]
0.0024647133 0.044821277 -0.08404171 0.031758383 0.015585934 -0.018542932 -0.07770198 -0.11261953
-0.019687751 0.06041224 -0.067431435 -0.07673711 -0.02580405 -0.0636776 -0.07448951 0.023425369
-0.05123806 -0.12419938 -0.022044238 0.017505066 0.06325624 -0.06028818 0.02394723 -0.15157226
-0.08317696 -0.022617115 0.028621389 -0.18500006 0.0114618745 -0.09392736 -0.047937505 0.0036259019
-0.07807503 -0.053650677 0.004145881 -0.08669479 0.06989056 -0.10727041 -0.038055696 -0.0732292
0.012224277 0.028310884 0.046681486 0.025167981 -0.08168535 -0.09938865 0.06881449 0.046186075
-0.11640795 0.09590602 0.020946166 0.097494885 -0.0056817215 -0.061779384 0.09796395 -0.008379895
-0.064907596 0.074779466 0.05036495 -0.017167911 -0.040150013 0.05927861 0.054173704 -0.03782999
0.045598593 0.0713631 0.07229852 0.08344515 0.08258086 0.059308544 0.058632016 -0.074537575
-0.021650665 0.15071528 0.0256865 0.03324136 -0.11042709 -0.12910359 -0.0021112824 -0.009229344
-0.05415263 0.07916994 0.016190458 0.080396734 0.04580948 -0.12173674 0.0029300493 -0.0045497115
-0.12046139 -0.014093609 0.096359976 -0.12310749 -0.03390754 -0.028298857 0.04422523 -0.016399302
-0.07464613 0.017871186 -0.13971841 -0.018049536 -0.062034924 -0.06221981 -0.008418534 0.096501596
-0.11590093 -0.092352085 0.05033913 -0.05068536 -0.10030461 -0.047242828 0.045471713 -0.07951969
-0.0065587675 0.034148086 0.029148225 -0.0045228326 -0.009094458 -0.09802238 -0.09036451 0.07577487
0.08260854 0.024352409 -0.040343434 -0.069862545 0.052370235 0.060300324 0.0056098434 0.01442046
0.035393838 -0.038448494 -0.07101735 -0.008024959 -0.036137402 0.11146971 -0.086615175 -0.012994041
0.011937019 0.07720142 0.068226896 0.12903059 0.09016344 0.11122296 0.051818285 0.0979436
0.103686884 -0.02548557 0.0331137 -0.005580426 -0.0026034687 0.11624544 -0.034676526 -0.06751046
0.01082802 -0.010601309 -0.010916339 0.029378036 -0.0452458 -0.0703055 -0.05560439 -0.035522137
-0.027444903 -0.035065208 -0.22627504 -0.17110619 -0.01733565 0.09498762 -0.13206537 -0.14348717
-0.049289804 -0.12089091 -0.05778986 -0.043190047 -0.03128543 -0.0800649 0.04947547 0.0492836
0.06937646 -0.09349001 -0.09158057 0.06513376 -0.08717088 0.034765862 -0.076274045 -0.07078871
-0.0652673 0.015796006 -0.0029645774 0.008596492 -0.12311389 0.062482495 0.038285475 -0.097508684
-0.047255594 0.05825088 -0.025570646 0.058076255 -0.010468713 0.08955291 -0.10303799 0.03227412
0.002442321 -0.008338542 -0.070843555 0.093052104 -0.06064772 0.027276162 0.05845069 -0.0013420976
0.032280564 0.12764668 -0.045898005 0.06371055 0.041864622 0.018892093 -0.054432727 0.041671947
0.016223194 0.05045426 0.09100974 0.0899344 -0.023514593 0.11582752 -0.0071810847 0.05215859
0.055855513
00000000: 0787 213b 8496 373d 0f1e acbd 1415 023d
00000010: 255c 7f3c 59e7 97bc 3722 9fbd 11a5 e6bd
00000020: 3548 a1bc d372 773d 7e19 8abd 5928 9dbd
00000030: 0463 d3bc 6769 82bd f58d 98bd 8fe6 bf3c
00000040: 00df 51bd 3f5c febd 1e96 b4bc c966 8f3c
00000050: 7d8c 813d bdf0 76bd fb2c c43c c235 1bbe
00000060: af58 aabd 8747 b9bc 6777 ea3c a870 3dbe
00000070: 96ca 3b3c fd5c c0bd 1e5a 44bd 8aa0 6d3b
00000080: cde5 9fbd d0c0 5bbd 2cda 873b 0a8d b1bd
00000090: c822 8f3d 97b0 dbbd 4ae0 1bbd 31f9 95bd
000000a0: 5548 483c 3aec e73c 1635 3f3d 152d ce3c
000000b0: a64a a7bd 478c cbbd 9dee 8c3d 9c2d 3d3d
000000c0: 4b67 eebd 606a c43d 4b97 ab3c 66ab c73d
000000d0: bc2d babb 610c 7dbd 53a1 c83d d44b 09bc
000000e0: 46ee 84bd fa25 993d 7a4b 4e3d b8a3 8cbc
000000f0: 5774 24bd 21ce 723d 3fe5 5d3d 9ff3 1abd
00000100: 97c5 3a3d d126 923d 3f11 943d 4ae5 aa3d
00000110: 2720 a93d 84ed 723d 2028 703d 28a7 98bd
00000120: bc5c b1bc 1b55 1a3e 7f6c d23c 1828 083d
00000130: 9927 e2bd bb33 04be 715d 0abb ad36 17bc
00000140: 26cf 5dbd d923 a23d daa1 843c 0ba7 a43d
00000150: b9a2 3b3d 1d51 f9bd 1206 403b bf15 95bb
00000160: 76b4 f6bd e1e8 66bc 6158 c53d c81f fcbd
00000170: a2e2 0abd 01d3 e7bc 8425 353d d457 86bc
00000180: 12e0 98bd 9866 923c 5812 0fbe 9fdc 93bc
00000190: 5518 7ebd 33da 7ebd e4ed 09bc a1a2 c53d
000001a0: 775d edbd 1723 bdbd 6730 4e3d 749b 4fbd
000001b0: 816c cdbd b281 41bd 8c40 3a3d 38db a2bd
000001c0: eeea d6bb ddde 0b3d 42c8 ee3c 4534 94bb
000001d0: ec00 15bc f5bf c8bd 0711 b9bd db2f 9b3d
000001e0: ab2e a93d b47e c73c 283f 25bd 1814 8fbd
000001f0: 2c82 563d 79fd 763d c7d2 b73b cb43 6c3c
00000200: 21f9 103d 2b7c 1dbd 8b71 91bd 1e7b 03bc
00000210: d004 14bd 3b4a e43d 4c63 b1bd f5e4 54bc
00000220: 7d93 433c c71b 9e3d 8bba 8b3d 9820 043e
00000230: 9ca7 b83d ddc8 e33d 693f 543d a796 c83d
00000240: ca59 d43d 1dc7 d0bc 3ba2 073d 02dc b6bb
00000250: f59e 2abb 1712 ee3d f908 0ebd ed42 8abd
00000260: 0268 313c 1db1 2dbc 72da 32bc 35aa f03c
00000270: a953 39bd 54fc 8fbd 6ec1 63bd a97f 11bd
00000280: 22d4 e0bc 89a0 0fbd a5b4 67be 7636 2fbe
00000290: 7e03 8ebc df88 c23d 253c 07be 4dee 12be
000002a0: 1be4 49bd a795 f7bd 0fb5 6cbd 0ce8 30bd
000002b0: 2725 00bd 11f9 a3bd caa6 4a3d 9add 493d
000002c0: 3f15 8e3d b177 bfbd 988e bbbd d964 853d
000002d0: a586 b2bd a666 0e3d 9135 9cbd acf9 90bd
000002e0: ddaa 85bd a066 813c 5b49 42bb 4dd8 0c3c
000002f0: 2323 fcbd a5ed 7f3d 3bd1 1c3d a2b2 c7bd
00000300: 158f 41bd 7a98 6e3d 8879 d1bc 5ee1 6d3d
00000310: f784 2bbc 8467 b73d 9505 d3bd de31 043d
00000320: 590f 203b 619e 08bc 6d16 91bd 1a92 be3d
00000330: be69 78bd 4272 df3c fe69 6f3d 53e9 afba
00000340: a038 043d d0b5 023e 8cff 3bbd ad7a 823d
00000350: 3d7a 2b3d 97c3 9a3c daf4 5ebd 34b0 2a3d
00000360: 81e6 843c 20a9 4e3d 5163 ba3d 872f b83d
00000370: ada1 c0bc fb36 ed3d 4e4f ebbb 3fa4 553d
00000380: c0c8 643d

2.bias f4 [3]
0.0010353083 0.027910948 -0.011824834
00000000: 2fb3 873a 80a5 e43c f3bc 41bc
